results/nativeprojector_results/projected_w_1000.npz (npz, 37120 bytes, 1 tensors)

w f4 [1, 18, 512]
-1.497027 -3.353287 0.30268645 -0.57862353 -0.025805911 1.230745 -0.2007453 0.5978858
-2.3507378 -3.9355652 2.036985 -2.6876678 -4.1751037 2.5598042 -1.6819153 2.114716
0.9634693 -2.0178087 -0.1559671 -1.7052809 1.9652289 -0.26678625 0.9714397 -0.099299245
0.6892349 -0.0074876035 0.9280484 -0.75699955 0.70843685 0.35090643 -0.6331281 2.5041246
3.1166368 -2.8109074 1.8500068 -3.1449506 -1.010017 0.44134158 0.6071648 1.6028625
1.9806426 1.1731509 -1.2696509 0.20259298 2.147308 1.5144713 -0.06684418 0.7866112
-0.4251459 1.6185734 -1.1218865 -4.630863 0.6280481 -3.2327027 -1.7975775 0.7998865
-1.4224576 1.0233146 1.1075379 -2.2610965 0.9001389 -0.169883 0.30160898 0.0012631337
-2.23684 0.6016218 1.6492171 4.391989 -0.29211012 0.23939867 0.4577877 2.649813
0.16521849 -0.43242216 -0.039866913 3.422809 -2.1660511 -0.7542077 0.7709134 2.4063606
0.6695807 1.9422483 0.7190939 0.63767815 -0.171129 -0.86110413 3.5138113 1.8750001
-1.5538566 0.08878079 -3.1380816 1.0359926 1.6054082 -0.5053149 1.7823516 0.2660308
1.6801431 -2.4454525 -0.87683177 -0.79634297 1.3132052 -1.4796304 -0.24769135 -0.6236958
4.1979127 1.0118622 3.163151 -0.8643135 -0.9915607 1.8730426 3.1051695 -3.140538
2.8412645 0.6017328 2.3583426 -0.5585767 0.23966275 0.5800402 2.2448082 -1.1051769
0.75486815 -1.8435515 -0.46264392 0.30486196 -0.70656085 -0.48305616 -1.6745827 1.9210635
3.7112517 -0.7610095 -1.2988282 1.5223178 1.5009745 -0.19256005 -2.0314863 -2.2640517
2.3618233 -0.19758375 1.4392389 -0.36238322 -2.5098176 -1.849196 0.2535589 -1.4859073
-0.0798525 0.11318324 0.48900452 1.5585968 -1.6501446 -1.4344845 -3.0815718 -0.9920541
-1.5570922 -0.3230248 3.4090123 -2.2902274 -2.3176465 3.5702825 -1.1918905 1.11314
2.3434768 0.79803044 2.0308008 -0.53094596 -1.0008428 0.42135477 -0.5247721 0.8006225
0.060899183 0.49854237 -2.6570928 1.7328086 0.5573552 2.8668003 0.422913 1.6675268
-0.9624026 2.657283 1.0429491 -0.36958385 0.27716413 2.8815243 -1.1436567 -4.006199
1.2716829 -0.031870384 -0.61040777 -1.1044276 -1.2612479 -1.254163 -3.7916892 3.6342158
0.5914416 0.20257528 3.0320928 0.70076895 0.34141195 3.350375 1.1731764 -1.5132939
2.2309659 0.44628316 -0.03680041 0.90122515 -0.21575992 -1.3130609 -0.12637676 -2.4689574
0.59158266 1.1531823 0.123170964 -1.2040117 -0.4068913 0.3004591 -0.024598671 -0.69724923
2.4187853 1.4588276 2.4268925 -4.514793 1.2745061 2.0132802 1.7745004 2.062749
1.2785091 0.83811843 4.4135747 -0.93237895 -0.74400926 3.2794092 0.6399012 2.4641256
-0.65875983 2.0149372 1.539573 0.9836129 -0.68831587 0.8929583 -0.62852895 -0.17353489
0.30404153 -0.7718378 -0.09972718 0.33562252 1.6111226 0.32087412 -3.0234206 2.6332471
2.560425 0.07758886 0.8476977 1.9231707 0.15597013 0.4547281 1.0479406 0.6557137
00000000: 959e bfbf 419c 56c0 b8f9 9a3e ac20 14bf
00000010: eb66 d3bc 0d89 9d3f 2d90 4dbe 0b0f 193f
00000020: 7d72 16c0 4de0 7bc0 f65d 0240 c002 2cc0
00000030: 739a 85c0 d5d3 2340 0049 d7bf 8257 0740
00000040: eda5 763f c723 01c0 d7b5 1fbe a546 dabf
00000050: 9f8c fb3f 3598 88be 46b0 783f 675d cbbd
00000060: b371 303f 925a f5bb 9494 6d3f b9ca 41bf
00000070: 1e5c 353f 02aa b33e af14 22bf 9443 2040
00000080: fa76 4740 e8e5 33c0 06cd ec3f df46 49c0
00000090: 3d48 81bf 86f7 e13e 276f 1b3f 992a cd3f
000000a0: b285 fd3f cf29 963f ec83 a2bf 8974 4f3e
000000b0: 7f6d 0940 32da c13f 9ae5 88bd 5a5f 493f
000000c0: b9ac d9be 6a2d cf3f fa99 8fbf 0830 94c0
000000d0: c3c7 203f 9ae4 4ec0 0517 e6bf 5dc5 4c3f
000000e0: 1713 b6bf f9fb 823f cdc3 8d3f ceb5 10c0
000000f0: 816f 663f cff5 2dbe 7e6c 9a3e bc8f a53a
00000100: 6328 0fc0 e303 1a3f 8c19 d33f 2d8b 8c40
00000110: 758f 95be ed24 753e 2663 ea3e 8996 2940
00000120: 092f 293e 7066 ddbe 7d4b 23bd 4d0f 5b40
00000130: 95a0 0ac0 c113 41bf 955a 453f d001 1a40
00000140: a469 2b3f 989b f83f 8a16 383f e03e 233f
00000150: 713c 2fbe 5271 5cbf 49e2 6040 0100 f03f
00000160: c6e4 c6bf b4d2 b53d 54d6 48c0 689b 843f
00000170: 047e cd3f 515c 01bf 1924 e43f 3035 883e
00000180: ee0e d73f 4b82 1cc0 0c78 60bf 22dd 4bbf
00000190: 1c17 a83f 8764 bdbf cda2 7dbe 87aa 1fbf
000001a0: 4d55 8640 b384 813f 1171 4a40 a643 5dbf
000001b0: ecd6 7dbf dcbf ef3f 19bb 4640 93fe 48c0
000001c0: 47d7 3540 290b 1a3f 16ef 1640 e2fe 0ebf
000001d0: 276a 753e 847d 143f f0aa 0f40 7076 8dbf
000001e0: 0a3f 413f 7ff9 ebbf aadf ecbe de16 9c3e
000001f0: 2ce1 34bf 2353 f7be ba58 d6bf 69e5 f53f
00000200: 2685 6d40 85d1 42bf 0140 a6bf 4fdb c23f
00000210: ef1f c03f 762e 45be df03 02c0 39e6 10c0
00000220: 1d28 1740 6553 4abe fb38 b83f 4b8a b9be
00000230: daa0 20c0 74b2 ecbf 79d2 813e 3632 bebf
00000240: b589 a3bd 9dcc e73d cd5e fa3e 1a80 c73f
00000250: f037 d3bf 309d b7bf 7938 45c0 42f7 7dbf
00000260: cc4e c7bf 8263 a5be 422d 5a40 1693 12c0
00000270: 5254 14c0 827f 6440 de8f 98bf 5f7b 8e3f
00000280: 86fb 1540 b94b 4c3f a4f8 0140 13ec 07bf
00000290: 9e1b 80bf d0bb d73e 7757 06bf 99f5 4c3f
000002a0: 6c71 793d f240 ff3e cf0d 2ac0 accc dd3f
000002b0: d5ae 0e3f a879 3740 0e88 d83e 8571 d53f
000002c0: 0460 76bf ed10 2a40 5b7f 853f 183a bdbe
000002d0: 75e8 8d3e e56a 3840 5863 92bf c832 80c0
000002e0: 81c6 a23f 858a 02bd af43 1cbf e25d 8dbf
000002f0: 9270 a1bf 6a88 a0bf 09ab 72c0 fe96 6840
00000300: b768 173f e56f 4f3e cf0d 4240 9865 333f
00000310: 8ccd ae3e 8b6c 5640 a52a 963f 9db3 c1bf
00000320: 25c8 0e40 3a7f e43e 07bc 16bd b1b6 663f
00000330: 2bf0 5cbe 6112 a8bf e968 01be 6603 1ec0
00000340: f671 173f 7a9b 933f 0f41 fc3d 0e1d 9abf
00000350: 0e54 d0be c6d5 993e 2783 c9bc ed7e 32bf
00000360: 61cd 1a40 ddba ba3f 3552 1b40 2f79 90c0
00000370: 0423 a33f 95d9 0040 d422 e33f 1404 0440
00000380: 30a6 a33f ee8e 563f 013c 8d40 63b0 6ebf
00000390: 6477 3ebf d7e1 5140 91d0 233f 3cb4 1d40
000003a0: 7ca4 28bf bbf4 0040 ba10 c53f 0ece 7b3f
000003b0: 7835 30bf ea98 643f 46e7 20bf 21b3 31be
000003c0: 55ab 9b3e 2997 45bf c43d ccbd b7d6 ab3e
000003d0: 4439 ce3f 9d49 a43e b97f 41c0 1f87 2840
000003e0: 01de 2340 e9e6 9e3d b702 593f 752a f63f
000003f0: a2b6 1f3e 1fd2 e83e eb22 863f dadc 273f
